checkpoint.pth (torch_old, 28391 bytes, 6 tensors)

fc1.weight f4 [64, 37]
-0.04403891 -0.03248695 -0.0032242127 0.0038555441 0.10970257 -0.019057104 0.04692216 0.13577805
0.036500104 0.022659436 0.27771112 -0.7992179 -0.27203596 -0.26328298 -1.2966495 0.02010418
-0.033194054 0.06553116 0.07753975 0.01604221 0.057691976 0.16822557 0.05918834 0.10357782
0.050230265 -0.11104063 0.100157574 -0.008950058 -0.01350869 0.034106564 0.013470151 -0.070061006
-0.0267342 -0.026384639 0.01551408 0.00019709948 -0.0076734168 0.23416185 0.1566851 0.04056886
-0.08809669 -0.39112425 0.032061484 -0.05862124 -0.20889916 -0.12136352 -0.25556597 0.13296025
-0.068135224 -0.0007770802 0.22118334 0.047722485 0.16275615 0.016414216 0.018754052 0.07629282
-0.18778862 -0.048174873 -0.10847786 -0.08276911 0.017264849 0.3446825 -0.06158783 0.16068923
0.077150375 0.06420792 0.037646122 0.032643355 0.07428619 0.22653085 0.01668468 0.11840917
-0.028886292 0.02046928 0.15275168 0.025692714 0.21210648 0.009982966 -0.19515896 -0.26615518
0.024255458 0.38096908 0.11928542 -0.21026692 -0.058900084 0.013600548 -0.016668651 0.07812031
0.30770588 0.10968184 0.029224595 0.069236666 -0.09071304 -0.072795965 -0.019115517 -0.0842506
0.051650066 -0.004250978 0.029297113 -0.09881573 0.28404307 0.22465967 -0.23975983 -0.12125286
-0.21623945 0.04183333 -0.053213906 -0.13487123 0.021641552 0.012810597 -0.0063881176 0.1239734
0.073800996 0.09949459 0.040679753 -0.04881965 -0.003887491 0.04901501 0.09435837 0.065081745
0.069718786 -0.06880043 -0.015589572 0.012569933 0.025696447 0.14256094 -0.057866152 -0.04718872
-0.037753202 -0.06560001 -0.026386505 0.36579806 -0.6202224 -0.36581844 -0.24489915 -1.5320873
-0.0026269765 0.0475629 0.05435838 0.12518588 0.102828264 0.07166519 0.17139536 0.003588695
0.010344425 -0.11206544 -0.03460477 0.00014328473 -0.11470871 -0.048026424 -0.20822361 -0.07805141
-0.2026419 0.0027551043 0.164606 0.05208187 0.0037845778 -1.1036143 -0.13768257 -0.04164664
-0.029912703 0.04472304 -0.16792016 -0.26012692 -0.074657425 0.095790066 0.018970922 0.08851002
-0.10754621 0.078219764 -0.023299837 0.0070966613 0.114666864 0.111995056 -0.65682626 -0.004329537
0.040567372 -0.7911776 0.012987111 -0.10195826 0.11560455 0.12980932 0.0142115 0.013015005
0.017255474 0.06157934 0.019915748 0.007665697 -0.032962706 -0.021291913 0.23044391 0.109826334
-0.031020513 -0.03171297 -0.33530685 0.078100935 0.0048201233 -0.010275873 -0.117617436 -0.02804443
0.18574059 0.028053759 -0.020504473 -0.13983299 -0.0929377 0.30138817 0.02958156 0.0324883
0.026007133 0.024246994 0.16771078 -0.08061294 -0.0535747 0.0032138873 -0.11430505 0.28723487
-0.19346507 -0.097873636 -0.3247485 -0.8250335 -0.010354874 0.013125906 0.11608843 -0.22884263
-0.2716481 -0.05276844 -0.15131658 -0.1513107 0.0024333964 -0.041067764 -0.07017153 0.18780829
-0.1424894 0.09746932 0.067312755 0.05308844 -0.14052731 -0.076765485 -0.18261814 0.0419715
-0.035189737 0.16949004 0.1873843 -0.34433222 0.04439643 -0.39132848 -0.025881365 -0.20777373
-0.044687275 0.007095651 -0.17072187 -0.09218423 0.09543618 -0.028377986 -0.19384868 -0.14523993
00000000: 2562 34bd 0911 05bd 504d 53bb 4cad 7c3b
00000010: beab e03d a51d 9cbc 7331 403d 6709 0b3e
00000020: 2281 153d 48a0 b93c 2730 8e3e 8b99 4cbf
00000030: 4c48 8bbe 07cd 86be 9cf8 a5bf 85b1 a43c
00000040: 7df6 07bd 3335 863d 29cd 9e3d f46a 833c
00000050: 6c4e 6c3d 5343 2c3e 796f 723d 9c20 d43d
00000060: 40be 4d3d 4569 e3bd 6a1f cd3d 44a3 12bc
00000070: 8d53 5dbc 53b3 0b3d e9b1 5c3c 257c 8fbd
00000080: ae01 dbbc 9924 d8bc c52e 7e3c 7dac 4e39
00000090: 4971 fbbb 20c8 6f3e 0f72 203e 882b 263d
000000a0: 0a6c b4bd 7041 c8be e752 033d d31c 70bd
000000b0: a9e9 55be 708d f8bd 8bd9 82be bb26 083e
000000c0: 7b8a 8bbd f8b4 4bba e37d 623e a778 433d
000000d0: 8ca9 263e 1b77 863c 19a2 993c 693f 9c3d
000000e0: a94b 40be 0453 45bd a429 debd da82 a9bd
000000f0: 036f 8d3c 3a7a b03e 8543 7cbd b88b 243e
00000100: 0401 9e3d 717f 833d d232 1a3d 0ab5 053d
00000110: 5c23 983d b4f7 673e 4fae 883c 8280 f23d
00000120: f2a2 ecbc 31af a73c f06a 1c3e 8779 d23c
00000130: 7132 593e 988f 233c c0d7 47be 7e45 88be
00000140: 62b3 c63c 610e c33e ea4b f43d 3650 57be
00000150: 3741 71bd d5d4 5e3c b28c 88bc 8bfd 9f3d
00000160: a08b 9d3e dfa0 e03d 6b68 ef3c f4cb 8d3d
00000170: c2c7 b9bd 0d16 95bd 2598 9cbc 948b acbd
00000180: 058f 533d ca4b 8bbb 8000 f03c e75f cabd
00000190: 186e 913e 2f0d 663e 9a83 75be 6b53 f8bd
000001a0: e06d 5dbe 6d59 2b3d d3f6 59bd af1b 0abe
000001b0: a049 b13c 8ae3 513c 6a53 d1bb c4e5 fd3d
000001c0: fa24 973d d2c3 cb3d d09f 263d 1df7 47bd
000001d0: 47c5 7ebb f7c3 483d f63e c13d 9449 853d
000001e0: b9c8 8e3d 3de7 8cbd 676b 7fbc 1ff2 4d3c
000001f0: 5b81 d23c 7ffb 113e 0f05 6dbd f648 41bd
00000200: 1aa3 1abd 4c59 86bd 8328 d8bc e249 bb3e
00000210: e5c6 1ebf 8e4c bbbe d8c6 7abe 701b c4bf
00000220: 5a29 2cbb 51d1 423d e5a6 5e3d ba30 003e
00000230: a097 d23d 33c5 923d 4482 2f3e 5030 6b3b
00000240: aa7b 293c 9182 e5bd bbbd 0dbd b43e 1639
00000250: 66ec eabd 5bb7 44bd 9238 55be 6bd9 9fbd
00000260: 5c81 4fbe fb8e 343b 7a8e 283e cd53 553d
00000270: ae06 783b 3c43 8dbf a9fc 0cbe ab95 2abd
00000280: 7c0b f5bc 822f 373d 43f3 2bbe 5b2f 85be
00000290: fee5 98bd 952d c43d e868 9b3c be44 b53d
000002a0: 3041 dcbd af31 a03d 4ddf bebc 1c8b e83b
000002b0: 76d6 ea3d aa5d e53d c425 28bf cade 8dbb
000002c0: f929 263d 9d8a 4abf e4c7 543c 7ecf d0bd
000002d0: 14c2 ec3d bcec 043e 5ad7 683c e33c 553c
000002e0: 5a5b 8d3c 9e3a 7c3d 5a26 a33c 8730 fb3b
000002f0: e703 07bd 616c aebc 7df9 6b3e a1ec e03d
00000300: bb1e febc 76e5 01bd 57ad abbe 62f3 9f3d
00000310: 20f2 9d3b 235c 28bc 69e1 f0bd 6fbd e5bc
00000320: c832 3e3e ffd0 e53c fff8 a7bc 6130 0fbe
00000330: 1f56 bebd 8d4f 9a3e 0755 f23c 7412 053d
00000340: e90c d53c a2a1 c63c 60bc 2b3e 6618 a5bd
00000350: 2571 5bbd 15a0 523b c418 eabd 7310 933e
00000360: b51b 46be f971 c8bd 6f45 a6be 6535 53bf
00000370: 7da7 29bc 0a0e 573c c5bf ed3d b955 6abe
00000380: 7615 8bbe b823 58bd bcf2 1abe 31f1 1abe
00000390: 9e79 1f3b ac36 28bd 17b6 8fbd d150 403e
000003a0: bee8 11be ff9d c73d 45db 893d 4473 593d
000003b0: 64e6 0fbe 3937 9dbd 4000 3bbe 4fea 2b3d
000003c0: 1d23 10bd cc8e 2d3e ace1 3f3e 504c b0be
000003d0: 08d9 353d 355c c8be 2805 d4bc a3c2 54be
000003e0: 010a 37bd a282 e83b b7d1 2ebe 16cb bcbd
000003f0: 0b74 c33d f378 e8bc 4580 46be c7b9 14be

fc1.bias f4 [64]
0.13793527 0.0032759502 -0.078454584 -0.057792798 0.1487002 0.07417758 -0.118703775 -0.010035853
0.07558057 -0.20903032 0.13314831 0.2255209 0.12610997 0.09209126 -0.043284543 -0.11980107
-0.04673625 -0.13448821 -0.0006109551 -0.18881395 -0.11864603 0.106011055 0.02025706 -0.06946174
-0.21696256 0.22853205 0.02063869 -0.14512883 0.16717225 0.117368385 -0.0154707935 -0.15952852
0.20789368 -0.014774279 -0.07856772 0.034047227 0.04750018 0.030430239 0.00944797 -0.051788576
-0.13987081 -0.025150726 -0.118434705 0.17406373 0.010808068 -0.093907736 -0.020000132 -0.18998978
-0.13513619 0.012134818 -0.12233461 0.04960441 -0.010452433 -0.09567837 -0.20915402 0.06510305
0.0742943 0.0052364315 -0.036091954 -0.07627743 0.014808797 0.08359814 0.04388177 -0.009250228
00000000: e73e 0d3e 53b1 563b ccac a0bd 24b8 6cbd
00000010: dd44 183e 6aea 973d f71a f3bd 6b6d 24bc
00000020: fcc9 9a3d 0b0c 56be 0858 083e f3ee 663e
00000030: f922 013e 589a bc3d 224b 31bd 435a f5bd
00000040: 836e 3fbd 47b7 09be 8128 20ba 7258 41be
00000050: b1fc f2bd 531c d93d 22f2 a53c f541 8ebd
00000060: 6f2b 5ebe 4e04 6a3e 7812 a93c a79c 14be
00000070: 342f 2b3e d65e f03d 3679 7dbc 725b 23be
00000080: 15e2 543e d10f 72bc 1de8 a0bd 1b75 0b3d
00000090: 8c8f 423d d648 f93c a9cb 1a3c 4220 54bd
000000a0: 4b3a 0fbe e508 cebc e58d f2bd c33d 323e
000000b0: 5314 313c b352 c0bd 51d7 a3bc ae8c 42be
000000c0: 2461 0abe 1ed1 463c 918a fabd fe2d 4b3d
000000d0: ae40 2bbc 05f3 c3bd 792c 56be bf54 853d
000000e0: 9c27 983d 5f96 ab3b 28d5 13bd 5737 9cbd
000000f0: 99a0 723c 8035 ab3d 5fbd 333d 458e 17bc

fc2.weight f4 [64, 64]
0.019855667 0.043894626 0.06677819 0.014239884 -0.06523448 -0.07797926 0.086404674 -0.09145839
0.077833444 0.16766882 0.005170302 -0.050713655 -0.059604406 0.020540675 0.005356824 -0.02233039
-0.059275333 -0.13152401 -0.020140849 0.046951357 -0.18125065 0.012743212 0.17375827 -0.0229575
0.0067720325 0.05227283 0.47689256 0.13420175 0.28434277 -0.1749648 -0.15600461 -0.07304218
0.13678868 -0.022383135 0.04425002 0.063449204 -0.071814805 0.11974231 0.6183483 0.08551241
-0.19103166 0.10783193 0.3124777 0.025642304 0.010073607 0.049845666 -0.10570853 0.082081005
-0.2507269 0.032448642 -0.16656229 -0.051738396 0.021286247 -0.02366535 -0.09065198 -0.032235637
0.018669188 0.14504865 -0.53093964 0.06887236 0.030431544 0.20511092 0.08453528 0.059019398
-0.08412098 0.14898747 -0.07915774 -0.174157 0.033820443 0.08460209 -0.12000512 -0.009985356
-0.07935521 0.0793907 -0.057336446 0.15803649 -0.06318443 0.21620302 -0.0222472 0.111942336
-0.016852384 0.0338115 -0.12958734 -0.44335955 0.09549774 0.101561785 0.31852484 -0.021305405
-0.19834125 0.20813099 -0.2998435 -0.3181549 -0.071636364 -0.15371701 -0.08891334 -0.28223896
-0.124424696 0.08203124 0.027801555 -0.17514293 0.009017468 0.009587497 0.08561054 -0.2368124
-0.18885064 -0.02853713 0.04287041 -0.30518946 -0.21189006 -0.09537214 -0.11785333 -0.07774427
-0.39732423 -0.04294041 0.05416787 0.044965133 -0.042006698 0.07401026 -0.01179474 0.051612422
-0.12254324 0.13914494 0.1723861 -0.036140308 -0.27446482 0.090803646 0.12814228 -0.053406566
0.057446662 -0.02607891 0.23990075 0.13903838 0.06305478 0.10532718 -0.06292189 0.022116823
0.14284968 -0.012090166 0.14176042 0.14333582 0.12830764 0.22283718 0.07787706 -0.0755823
-0.11320815 0.13640952 0.09818812 -0.0001662594 -0.08754828 0.14068058 0.26241568 0.14095381
-0.043327652 0.28033778 0.35087857 0.13981086 0.2137629 0.23857298 0.205164 0.10723679
-0.037976895 0.0060601067 -0.1584173 0.13907494 0.24462499 0.13957483 0.14953232 -0.00031413752
0.15425213 0.063331604 -0.20728467 0.0117862495 0.018727314 0.054019544 0.09176888 -0.039005157
0.043821953 -0.093458496 -0.07065656 0.04961986 -0.0017341592 0.036140475 -0.046884015 0.05803981
0.03744957 -0.0558163 0.39104435 0.09145844 0.0064220545 0.17913808 0.008525851 0.100936875
0.038473524 -0.103780836 0.062629975 -0.06217445 0.162703 0.04501434 -0.012287138 -0.21293211
-0.072778076 0.11938611 -0.018047344 0.2358072 0.23780245 0.18192035 -0.087572955 -0.13269246
0.036110476 -0.04260227 0.047879532 0.053592537 0.14710952 0.1186399 0.023758452 0.16316637
0.08793737 0.1068722 0.085832186 0.063722394 0.3234058 0.06072566 -0.04362479 -0.033565924
0.013401876 0.048665334 0.08351713 0.099980704 -0.079100296 0.09320392 -0.14202 0.014542906
0.10421199 0.09139631 0.06598297 -0.13850719 -0.29969278 0.029634606 -0.039416477 0.028824894
0.31484666 -0.12587824 -0.086051784 0.04903923 0.029756349 0.02392591 -0.0020186526 -0.054726165
-0.05606509 -0.1525633 0.15580952 0.01655048 -0.20926845 0.06015473 -0.21797904 -0.121812664
00000000: 5aa8 a23c daca 333d 01c3 883d 674e 693c
00000010: a899 85bd 97b3 9fbd eff4 b03d 894e bbbd
00000020: 2467 9f3d 60b1 2b3e a36b a93b 1fb9 4fbd
00000030: c023 74bd eb44 a83c 4c88 af3b 39ee b6bc
00000040: b1ca 72bd 3bae 06be 6cfe a4bc 1150 403d
00000050: c599 39be e8c8 503c b0ed 313e 5e11 bcbc
00000060: ede7 dd3b 091c 563d 432b f43e 2f6c 093e
00000070: 6095 913e f929 33be acbf 1fbe 2397 95bd
00000080: 5512 0c3e d65c b7bc 823f 353d a8f1 813d
00000090: a413 93bd 753b f53d 134c 1e3f 2121 af3d
000000a0: ce9d 43be fdd6 dc3d 14fd 9f3e cf0f d23c
000000b0: c50b 253c f82a 4c3d b77d d8bd 161a a83d
000000c0: 475f 80be dee8 043d 4e8f 2abe a4eb 53bd
000000d0: 7f60 ae3c d6dd c1bc bfa7 b9bd 8409 04bd
000000e0: 20f0 983c a287 143e a9eb 07bf f40c 8d3d
000000f0: 934b f93c 9908 523e d520 ad3d 53be 713d
00000100: 9f47 acbd 2c90 183e 741d a2bd 3656 32be
00000110: 4e87 0a3d dc43 ad3d 3fc5 f5bd 9e99 23bc
00000120: fc84 a2bd 9797 a23d 9fd9 6abd 51d4 213e
00000130: d766 81bd 5364 5d3e c33f b6bc 0642 e53d
00000140: 030e 8abc ed7d 0a3d 8bb2 04be 0600 e3be
00000150: 5294 c33d a0ff cf3d b015 a33e ac88 aebc
00000160: f819 4bbe 4a20 553e 1685 99be 33e5 a2be
00000170: 16b6 92bd fe67 1dbe 3218 b6bd a081 90be
00000180: 60d2 febd ffff a73d 16c0 e33c ab58 33be
00000190: 01be 133c e114 1d3c 9454 af3d f37e 72be
000001a0: 1062 41be b3c6 e9bc e298 2f3d cb41 9cbe
000001b0: b5f9 58be 7852 c3bd 165d f1bd 6338 9fbd
000001c0: 156e cbbe 49e2 2fbd 21df 5d3d 5c2d 383d
000001d0: 370f 2cbd b192 973d ba3e 41bc 8c67 533d
000001e0: f3f7 fabd 037c 0e3e fb85 303e dc07 14bd
000001f0: a786 8cbe 43f7 b93d bb37 033e d8c0 5abd
00000200: 314d 6b3d 70a3 d5bc 8ba8 753e 1460 0e3e
00000210: dd22 813d c7b5 d73d 31dd 80bd 572e b53c
00000220: 3047 123e d515 46bc a529 113e a0c6 123e
00000230: 1463 033e 6e2f 643e 027e 9f3d e5ca 9abd
00000240: add9 e7bd f0ae 0b3e da16 c93d eb55 2eb9
00000250: 834c b3bd 920e 103e 595b 863e 3256 103e
00000260: 5678 31bd 6f88 8f3e 5ba6 b33e 942a 0f3e
00000270: a9e4 5a3e 7a4c 743e 8316 523e f69e db3d
00000280: a98d 1bbd dc93 c63b 2538 22be a969 0e3e
00000290: f97e 7a3e b4ec 0e3e 001f 193e d3b2 a4b9
000002a0: 45f4 1d3e 00b4 813d 6f42 54be 1d1b 413c
000002b0: 066a 993c 9943 5d3d 53f1 bb3d dfc3 1fbd
000002c0: a67e 333d 2b67 bfbd 63b4 90bd 323e 4b3d
000002d0: ba4c e3ba 0908 143d 7409 40bd 27bb 6d3d
000002e0: b864 193d a29f 64bd f736 c83e 904e bb3d
000002f0: 1970 d23b f96f 373e 03b0 0b3c feb7 ce3d
00000300: 6a96 1d3d 0c8b d4bd 2544 803d a3aa 7ebd
00000310: 9d9b 263e f560 383d fe4f 49bc e00a 5abe
00000320: ac0c 95bd b480 f43d 06d8 93bc 7177 713e
00000330: 7c82 733e 5449 3a3e 7359 b3bd 88e0 07be
00000340: 94e8 133d b87f 2ebd 541d 443d d983 5b3d
00000350: e1a3 163e 7af9 f23d 16a1 c23c 1615 273e
00000360: 8218 b43d d0df da3d c9c8 af3d e380 823d
00000370: 7295 a53e 78bb 783d e8af 32bd 6c7c 09bd
00000380: 8b93 5b3c 4d55 473d 070b ab3d afc2 cc3d
00000390: 56ff a1bd b2e1 be3d b16d 11be 5e45 6e3c
000003a0: 196d d53d fd2d bb3d 1422 873d d4d4 0dbe
000003b0: 5571 99be 46c4 f23c 2c73 21bd 2f22 ec3c
000003c0: 9533 a13e 3ae6 00be eb3b b0bd 5cdd 483d
000003d0: 96c3 f33c 4500 c43c 5f4b 04bb 8b28 60bd
000003e0: 82a4 65bd 8e39 1cbe 888c 1f3e df94 873c
000003f0: 784a 56be ce64 763d e635 5fbe eb78 f9bd

fc2.bias f4 [64]
0.01456143 -0.0052545355 0.34799835 0.0076119383 0.12086729 -0.15726985 -0.060285788 0.02769259
0.23236056 0.3733574 -0.08525226 0.22810222 0.1873897 -0.08288825 -0.04982388 0.12225925
0.049179807 -0.09942219 -0.016669596 0.066520214 0.25723284 0.31226334 -0.14431335 -0.08407854
-0.1108508 -0.055819977 0.060631853 0.0011795297 -0.008089947 0.016733916 0.08088248 -0.0756701
-0.07724452 0.08286727 0.007980056 -0.03625685 -0.1573806 -0.07481967 0.13476801 -0.054792438
0.09079287 0.43369222 0.18130466 -0.013268677 0.10089232 -0.06963403 0.24657173 -0.1224317
0.11007003 -0.052904088 -0.137848 0.24111833 -0.03131823 -0.15229917 0.2155861 0.016158924
-0.216125 -0.14898759 0.015794598 -0.0073645245 0.079095356 0.04991556 0.07172769 -0.095751606
00000000: 1093 6e3c 3d2e acbb d72c b23e 916d f93b
00000010: 4589 f73d 590b 21be 3bee 76bd 92db e23c
00000020: edef 6d3e b328 bf3e bd98 aebd a193 693e
00000030: 16e3 3f3e 51c1 a9bd 2014 4cbd 0f63 fa3d
00000040: c470 493d dc9d cbbd ad8e 88bc c03b 883d
00000050: 06b4 833e fbe0 9f3e e1c6 13be 5f31 acbd
00000060: bf05 e3bd 7da3 64bd 1b59 783d 739a 9a3a
00000070: b28b 04bc 9115 893c b7a5 a53d edf8 9abd
00000080: 6032 9ebd 51b6 a93d c8be 023c 1082 14bd
00000090: 6128 21be 0e3b 99bd a000 0a3e 096e 60bd
000000a0: 9df1 b93d e80c de3e eea7 393e dd64 59bc
000000b0: a2a0 ce3d 499c 8ebd 4d7d 7c3e 79bd fabd
000000c0: 656c e13d f5b1 58bd 0728 0dbe b9e7 763e
000000d0: 8b47 00bd 50f4 1bbe 9ac2 5c3e b85f 843c
000000e0: df4f 5dbe 3490 18be ac63 813c 1c52 f1bb
000000f0: bffc a13d 4274 4c3d f8e5 923d 6b19 c4bd

fc3.weight f4 [4, 64]
0.10134227 0.15673031 0.19176267 -0.2428241 0.15329586 -0.09711701 0.61763954 -0.13825879
0.10539666 0.11060357 -0.10319918 0.20597398 0.058204573 -0.043803055 -0.05184268 0.11275911
0.28509468 0.15997955 0.3825726 0.2174161 0.41812146 0.005349532 -0.26962164 -0.2004928
0.008622799 -0.2357874 -0.17076412 0.13279887 0.16169982 0.2752437 -0.62231845 0.4677698
0.15946464 0.14969173 0.37668177 0.120233715 0.17645304 0.08515902 0.07994369 0.08841383
0.097702876 0.1333952 0.14575161 0.019761285 0.14524642 -0.05736194 0.18128508 0.24350712
0.056411516 0.32406792 -0.15343232 0.1521638 0.14083202 -0.10181349 0.10035338 -0.077207446
-0.1602718 -0.18018168 0.16496238 0.15263674 -0.10524247 0.31765053 0.17803715 -0.24958909
0.120630234 0.12033702 0.21097302 -0.15459892 0.20271443 -0.047496844 0.47057712 0.03586087
0.03894763 0.10454418 -0.01653397 0.12345494 0.02532898 0.077668145 -0.1229234 0.11952962
0.18081245 -0.41952378 0.278415 0.18799514 0.31704396 0.07767527 -0.060079295 0.10275498
-0.016102593 -0.16127078 -0.032678936 0.4203191 0.16370611 0.22979605 0.014423527 0.35913968
-0.19463605 -0.013289837 0.38692567 0.1797433 0.21179608 -0.5636273 0.13389915 0.020689894
0.10392164 0.14530611 0.16165024 0.066795275 0.34345847 0.012317769 0.14496331 0.09584749
0.14938079 0.30401993 0.06138012 0.13477382 0.22042044 -0.25484052 0.14273103 0.10274048
-0.20119198 -0.23064692 0.12171767 0.11784695 -0.55412596 0.13068335 -0.35273984 -0.13290356
0.047185693 0.17607427 0.18780473 -0.107601054 0.2544904 0.07240639 0.5855704 0.040179655
0.051066115 0.111425675 -0.17208126 0.20601045 0.15050304 -0.1680688 -0.25344628 0.33769232
0.29600805 -0.0005227306 0.09125396 0.038227756 0.13988443 0.21541265 -0.31175622 0.16569412
-0.17580226 -0.089669935 -0.21339953 0.07553341 0.21004927 0.20488316 -0.045431793 0.007273835
-0.054275107 -0.11617154 0.42748085 0.17107883 0.45363364 -0.33654872 0.16326715 -0.11366595
0.25980577 0.15847448 0.17701302 0.23772147 0.28670785 0.022616293 0.16069154 0.17996167
0.24983042 -0.0028232944 -0.1504494 0.2230391 0.2833125 0.014554357 0.08043619 0.050927382
-0.040901057 0.09622936 0.38565826 0.05055236 -0.08242585 0.44500774 -0.013082967 -0.5327682
0.30074728 0.3399644 0.13396877 -0.12316916 0.17203207 0.025874097 0.3337459 0.017061265
0.10684224 0.18310127 0.046963867 0.062947236 0.18625198 0.0184018 -0.13201678 0.009348189
0.31940517 0.18354714 0.43361792 0.10607397 0.18469755 0.12588443 -0.08327479 -0.39011836
-0.1362752 -0.24070445 0.18381922 0.46631992 0.14501636 -0.099154994 -0.38487712 0.29405865
-0.50658077 0.10040208 0.12870385 0.348761 0.07546562 -0.26371384 0.19196652 0.06470163
0.068682514 0.2277274 0.26629272 -0.11451108 0.32030967 -0.29221922 0.10539352 0.21664687
0.12625596 -0.048335616 0.07020158 0.2597498 0.16333307 -0.04256194 0.13471028 0.15302917
-0.25982723 -0.29109353 0.05399081 -0.11553957 -0.4287996 0.098141536 0.34974054 -0.32651234
00000000: 898c cf3d e97d 203e 6f5d 443e e2a6 78be
00000010: 97f9 1c3e 48e5 c6bd a01d 1e3f b693 0dbe
00000020: 34da d73d 2084 e23d 175a d3bd d8ea 523e
00000030: eb67 6e3d d56a 33bd fd58 54bd 40ee e63d
00000040: eef7 913e aed1 233e 8ee0 c33e 53a2 5e3e
00000050: 0414 d63e 204b af3b d90b 8abe fc4d 4dbe
00000060: a446 0d3c 4172 71be cadc 2ebe 6dfc 073e
00000070: a394 253e beec 8c3e 4350 1fbf 867f ef3e
00000080: b34a 233e ca48 193e 6fdc c03e 183d f63d
00000090: 1bb0 343e da67 ae3d 84b9 a33d 4f12 b53d
000000a0: 7218 c83d c098 083e e93f 153e 6be2 a13c
000000b0: 7abb 143e 5bf4 6abd cca2 393e ee59 793e
000000c0: c30f 673d 3bec a53e 5d1d 1dbe d4d0 1b3e
000000d0: 4536 103e 9783 d0bd 1386 cd3d f01e 9ebd
000000e0: 4a1e 24be 8c81 38be e6eb 283e ce4c 1c3e
000000f0: 5d89 d7bd 17a3 a23e 5f4f 363e 4894 7fbe
00000100: fc0c f73d 4173 f63d 5009 583e 2e4f 1ebe
00000110: 5f94 4f3e 0d8c 42bd 7cef f03e d9e2 123d
00000120: 8d87 1f3d 421b d63d 4072 87bc f2d5 fc3d
00000130: b97e cf3c 7a10 9f3d 43bf fbbd f2cb f43d
00000140: e626 393e d2cb d6be 698c 8e3e cc81 403e
00000150: 9653 a23e 3614 9f3d b515 76bd 3471 d23d
00000160: 96e9 83bc 2b24 25be 59da 05bd 1134 d73e
00000170: 93a2 273e a84f 6b3e a850 6c3c 28e1 b73e
00000180: ac4e 47be 9ebd 59bc 1f1b c63e a10e 383e
00000190: 12e1 583e e149 10bf dc1c 093e da7d a93c
000001a0: ded4 d43d 20cb 143e a487 253e f6cb 883d
000001b0: cad9 af3e 78d0 493c 4371 143e b04b c43d
000001c0: 47f7 183e 80a8 9b3e b969 7b3d 2602 0a3e
000001d0: e5b5 613e 757a 82be 1528 123e 9a69 d23d
000001e0: 4505 4ebe b52e 6cbe 1d47 f93d be59 f13d
000001f0: 33db 0dbf dbd1 053e 519a b4be df17 08be
00000200: c945 413d d04c 343e e24f 403e f15d dcbd
00000210: 914c 823e cd49 943d f1e7 153f 6c93 243d
00000220: b42a 513d 2533 e43d 1236 30be 67f4 523e
00000230: 781d 1a3e 3a1a 2cbe b6c3 81be 02e6 ac3e
00000240: 5e8e 973e db07 09ba 5be3 ba3d b594 1c3d
00000250: dd3d 0f3e 2295 5c3e 839e 9fbe b8ab 293e
00000260: 8205 34be dfa4 b7bd 6885 5abe 43b1 9a3d
00000270: 2817 573e e4cc 513e b016 3abd 5a59 ee3b
00000280: 934f 5ebd 58eb edbd c5de da3e 4a2f 2f3e
00000290: ab42 e83e 1d50 acbe 812f 273e b2c9 e8bd
000002a0: 4305 853e 2247 223e e742 353e 426d 733e
000002b0: 5fcb 923e ce45 b93c 538c 243e df47 383e
000002c0: 8cd3 7f3e 0507 39bb 680f 1abe 5d64 643e
000002d0: 560e 913e 6675 6e3c bbbb a43d 3b99 503d
000002e0: de87 27bd e613 c53d 0075 c53e fe0f 4f3d
000002f0: e2ce a8bd 0ed8 e33e f159 56bc 7f63 08bf
00000300: 8cfb 993e d00f ae3e 1c2f 093e 1d40 fcbd
00000310: 2d29 303e eaf5 d33c bee0 aa3e 11c4 8b3c
00000320: 1bd0 da3d e67e 3b3e 2f5d 403d 7bea 803d
00000330: d7b8 3e3e 5fbf 963c 682f 07be 2629 193c
00000340: 1389 a33e c8f3 3b3e 2b03 de3e 4f3d d93d
00000350: 5b21 3d3e d9e7 003e f98b aabd 98bd c7be
00000360: ba8b 0bbe 3a7b 76be 1b3b 3c3e 7cc1 ee3e
00000370: 2b7f 143e c611 cbbd 9d0e c5be db8e 963e
00000380: 47af 01bf 9b9f cd3d f1ca 033e cd90 b23e
00000390: b88d 9a3d 8005 87be df92 443e 4a82 843d
000003a0: 6ba9 8c3d 5f31 693e 8557 883e c984 eabd
000003b0: a1ff a33e c29d 95be 8fd8 d73d add8 5d3e
000003c0: 3e49 013e 91fb 45bd d9c5 8f3d edfd 843e
000003d0: c940 273e 6e55 2ebd 7ef1 093e aeb3 1c3e
000003e0: 1308 85be 360a 95be 7825 5d3d 03a0 ecbd
000003f0: 9f8b dbbe 6efe c83d 3111 b33e a02c a7be

fc3.bias f4 [4]
0.2564425 0.19739917 0.118931405 0.15668808
00000000: 6e4c 833e 0223 4a3e 4f92 f33d d772 203e
